model_checkpoint/0/model.tflite (tflite, 264360 bytes, 9 tensors)

sequential_2/lstm_2/zeros f4 [1, 100]
000000 00 00 00 00 00 00 00 00 00 00 00 00 00 00 00 00
       0.0 0.0 0.0 0.0
000010 00 00 00 00 00 00 00 00 00 00 00 00 00 00 00 00
       0.0 0.0 0.0 0.0
000020 00 00 00 00 00 00 00 00 00 00 00 00 00 00 00 00
       0.0 0.0 0.0 0.0
000030 00 00 00 00 00 00 00 00 00 00 00 00 00 00 00 00
       0.0 0.0 0.0 0.0
000040 00 00 00 00 00 00 00 00 00 00 00 00 00 00 00 00
       0.0 0.0 0.0 0.0
000050 00 00 00 00 00 00 00 00 00 00 00 00 00 00 00 00
       0.0 0.0 0.0 0.0
000060 00 00 00 00 00 00 00 00 00 00 00 00 00 00 00 00
       0.0 0.0 0.0 0.0
000070 00 00 00 00 00 00 00 00 00 00 00 00 00 00 00 00
       0.0 0.0 0.0 0.0
000080 00 00 00 00 00 00 00 00 00 00 00 00 00 00 00 00
       0.0 0.0 0.0 0.0
000090 00 00 00 00 00 00 00 00 00 00 00 00 00 00 00 00
       0.0 0.0 0.0 0.0
0000a0 00 00 00 00 00 00 00 00 00 00 00 00 00 00 00 00
       0.0 0.0 0.0 0.0
0000b0 00 00 00 00 00 00 00 00 00 00 00 00 00 00 00 00
       0.0 0.0 0.0 0.0
0000c0 00 00 00 00 00 00 00 00 00 00 00 00 00 00 00 00
       0.0 0.0 0.0 0.0
0000d0 00 00 00 00 00 00 00 00 00 00 00 00 00 00 00 00
       0.0 0.0 0.0 0.0
0000e0 00 00 00 00 00 00 00 00 00 00 00 00 00 00 00 00
       0.0 0.0 0.0 0.0
0000f0 00 00 00 00 00 00 00 00 00 00 00 00 00 00 00 00
       0.0 0.0 0.0 0.0
000100 00 00 00 00 00 00 00 00 00 00 00 00 00 00 00 00
       0.0 0.0 0.0 0.0
000110 00 00 00 00 00 00 00 00 00 00 00 00 00 00 00 00
       0.0 0.0 0.0 0.0
000120 00 00 00 00 00 00 00 00 00 00 00 00 00 00 00 00
       0.0 0.0 0.0 0.0
000130 00 00 00 00 00 00 00 00 00 00 00 00 00 00 00 00
       0.0 0.0 0.0 0.0
000140 00 00 00 00 00 00 00 00 00 00 00 00 00 00 00 00
       0.0 0.0 0.0 0.0
000150 00 00 00 00 00 00 00 00 00 00 00 00 00 00 00 00
       0.0 0.0 0.0 0.0
000160 00 00 00 00 00 00 00 00 00 00 00 00 00 00 00 00
       0.0 0.0 0.0 0.0
000170 00 00 00 00 00 00 00 00 00 00 00 00 00 00 00 00
       0.0 0.0 0.0 0.0
000180 00 00 00 00 00 00 00 00 00 00 00 00 00 00 00 00
       0.0 0.0 0.0 0.0

sequential_2/dense_3/BiasAdd/ReadVariableOp f4 [100]
000000 4f e2 2b 3d 49 f3 ec 3c 72 df a8 3d 0e a2 8d 3c
       0.04196387 0.028924601 0.08245744 0.017289188
000010 f9 cc c3 3c c6 22 6a 3d 48 c8 e5 3a 44 0c df bb
       0.02390145 0.05716207 0.0017531002 -0.006806882
000020 c4 d3 5c 3c 8f 20 05 3c a2 44 99 3c a6 15 9b 3d
       0.013478223 0.008125438 0.018709484 0.075724885
000030 78 ce b9 3c ef 42 14 3c 37 37 42 3d 04 a0 5e 3c
       0.02268146 0.009049161 0.04741594 0.013587955
000040 c0 ae 9d 3d 04 e1 87 3c 76 71 2d 3c 91 d6 84 3c
       0.076993465 0.016586788 0.010586133 0.016215594
000050 6c 3d d3 3c 38 3c 3c bb 30 58 42 3c 50 ee 6c 3b
       0.025786124 -0.0028722417 0.011861846 0.0036152788
000060 5d 11 4d 3b 7e 08 06 3d 54 1c 99 bb 60 ad dc bc
       0.0031290867 0.032722943 -0.0046725664 -0.02693814
000070 4a 05 e4 bb 1d 61 17 3d e1 2b ea bc ef ac e4 bc
       -0.0069586383 0.03695785 -0.028585376 -0.027914492
000080 0c b3 4c 3d 2b 48 8b 3c 9e 45 cb 3c 2f 58 e7 3b
       0.04997544 0.017002186 0.02481347 0.007060073
000090 9c 4f 23 3d ec d5 58 ba f4 a7 0d bc 6b 03 d6 3c
       0.039870843 -0.0008271623 -0.008646 0.026124677
0000a0 d5 ea 52 bc a7 ab 0d 3d 24 f2 7f 3d 16 08 fe 3c
       -0.012873371 0.03458753 0.062486783 0.031009715
0000b0 bb f7 8b 3c 61 91 d0 3c ae fb 28 3c 64 a9 11 3d
       0.0170859 0.025459947 0.010313911 0.035561934
0000c0 e2 3e 19 3d 5e f8 1d 3c af 14 d7 3b 5a a5 d0 3c
       0.037413485 0.009641735 0.006563745 0.02546947
0000d0 02 d8 0d 3d 82 3c a3 bc 52 d9 4f 3d c1 1b 7f 3c
       0.03462983 -0.019926313 0.050744362 0.015570582
0000e0 d1 14 f8 3c 6f 5c 3d 3b da ef b2 3c c5 46 31 3c
       0.030283364 0.0028894206 0.021842886 0.010820095
0000f0 2a b4 f0 3c 46 6f 9c bc 61 e4 5b 3d f0 5a d9 3c
       0.029382784 -0.019096028 0.053684596 0.02653262
000100 f3 d4 18 ba 9b 07 25 3c 3d be 6c 3c d9 79 df 3b
       -0.0005830072 0.010072614 0.014449653 0.0068199453
000110 c0 38 57 3d 32 8c 25 3d b1 f6 68 3c f2 d1 f9 3c
       0.052544355 0.040416904 0.014218972 0.030495618
000120 c7 12 15 3c fa 43 e2 bb 55 8a 8e 3d 0a 45 bc 3c
       0.009098715 -0.006905076 0.069599785 0.02298214
000130 fc c0 01 3d b9 32 8c 3d 85 0b 0a 3c 6f bf 8b bc
       0.031678185 0.06845612 0.008425598 -0.017059056
000140 2b 0d e3 3c 81 65 4a 3d 51 37 1d 3d ae 03 56 3a
       0.02771624 0.049413208 0.038382832 0.00081640005
000150 f8 5e f7 3c a2 39 9d 3d b4 51 65 bc a4 c6 0f bc
       0.030196652 0.07677008 -0.01399653 -0.008775387
000160 05 3a da bc fe 54 80 3c ea 56 f0 bb 4a a0 1e 3d
       -0.026638994 0.015665527 -0.0073345797 0.038727082
000170 8d ee 94 3b 23 c8 5b bc 7a 24 c1 3c b3 bf c0 3c
       0.004545039 -0.0134144155 0.023576964 0.02352891
000180 ee 64 a5 bb be a1 33 bc 19 30 8c 3c a4 66 96 3c
       -0.005047432 -0.010963855 0.017112778 0.01835949

sequential_2/dense_4/BiasAdd/ReadVariableOp f4 [10]
000000 6a fd 55 bb 8b 3b 2c 3a 35 93 32 bc ce 7f ed 3c
       -0.0032652267 0.0006570152 -0.010899355 0.028991606
000010 90 63 d4 3c 9e 6c 75 ba ee 17 5c bc 61 bb 81 3b
       0.025926381 -0.00093621935 -0.01343344 0.003959105
000020 b1 73 71 bb 3a 91 e0 bc
       -0.003684264 -0.027413

Func/sequential_2/lstm_2/StatefulPartitionedCall/input/_4 f4 [6, 400]
000000 33 26 c6 bd 5d 79 e6 3d 76 63 a2 bd 13 aa 2e bd
       -0.09675255 0.11253617 -0.07929127 -0.042642664
000010 05 57 c0 bd 32 0d 94 3d b0 33 94 bc 79 05 83 bd
       -0.09391598 0.07229079 -0.018091053 -0.06397528
000020 b1 35 35 3d cb f7 7e 3d f7 81 30 bc 56 7a 87 bc
       0.044240657 0.062248033 -0.0107731735 -0.016537827
000030 ec 43 a7 bc 60 b4 2a 3e e7 a7 06 3e a4 68 11 3d
       -0.02041813 0.1667037 0.13149987 0.035500184
000040 23 60 a7 3d d8 ae 02 3d af 3d 21 bd 8c d9 67 bb
       0.081726335 0.031905025 -0.039365467 -0.003537747
000050 a8 6a 10 bd a0 20 b5 bd ff 1b 75 3c d4 76 ee 3d
       -0.035257965 -0.08844113 0.014960288 0.116437584
000060 6a 2f 7a 3d 29 57 ba 3d d9 fc 52 3d e8 14 01 3d
       0.061080374 0.09098656 0.051510666 0.03151408
000070 f0 5b 22 bc 59 df 37 bc 14 da 70 bd 77 35 5a 3d
       -0.009909615 -0.011222684 -0.058801726 0.053273644
000080 e8 7e a8 bd 7f 58 39 bc 32 da 91 3d f4 a4 4a 3c
       -0.082273304 -0.011312603 0.071216956 0.012368429
000090 8e 10 0c be d6 61 20 3d 4e 46 b8 bd 99 f4 00 3d
       -0.1367819 0.039155804 -0.089977846 0.031483267
0000a0 19 dd b3 bd 96 2c 0e 3e 31 e7 28 3c 18 c0 e0 bd
       -0.087824054 0.13884196 0.010309027 -0.10974139
0000b0 e6 5a 52 3d 67 35 53 bd 6b de 69 3d 6e 59 d5 bd
       0.05135622 -0.0515646 0.05709688 -0.10417448
0000c0 20 48 06 3d d4 e5 b1 3c 06 fa e8 bb 77 e1 8c 3d
       0.032783628 0.021716036 -0.0071098832 0.068789415
0000d0 bb 8e 15 3c 28 f3 8b bd 96 a4 4d 3d a5 e5 d1 3d
       0.009128268 -0.06833488 0.05020579 0.10248879
0000e0 1c 13 d1 bd 45 d9 2b 3c 1a 18 03 3e d9 50 82 bd
       -0.10208723 0.010488813 0.12802163 -0.06363077
0000f0 b9 68 8c bd 18 17 94 3d 45 c7 09 3d 95 ac ce 3d
       -0.06855912 0.07230967 0.033637304 0.10091511
000100 3c eb 3b 3d d9 01 bd 3d c9 95 50 bd 8a bc 99 3d
       0.045878634 0.09228868 -0.050924096 0.07506664
000110 ac 0b 95 bb a8 e0 6a bd ff 41 49 bd 7d 5b bc 3d
       -0.0045485105 -0.057343155 -0.049135204 0.091971375
000120 e5 8e 6f bd 7f 85 0a 3e c7 af 5f 3d e3 0c c4 3d
       -0.058485884 0.13527487 0.054610994 0.095727704
000130 93 63 16 3c 58 35 9e 3d ad b0 70 3d 16 a7 83 bd
       0.009179014 0.07725018 0.05876224 -0.064283535
000140 e7 47 44 bd a7 ef c2 3d d4 5e 12 be 96 6d f9 3c
       -0.047920134 0.09518366 -0.14293987 0.030447762
000150 21 9f 5a 3c c5 59 d5 3d 51 4b ae bd 53 10 02 be
       0.013343603 0.10417513 -0.08510459 -0.1270154
000160 96 a5 86 bd 73 83 c3 bd f3 40 41 3d 14 38 fb 3d
       -0.06574552 -0.09546556 0.04718108 0.122665554
000170 86 95 45 3d e4 53 9a bc 18 4e 0f 3c d7 1a c5 3d
       0.0482383 -0.01883883 0.008746646 0.0962426
000180 43 7d 06 3d c1 03 ac 3d 34 c5 d0 3d e1 79 ed 3d
       0.032834303 0.083991535 0.101938635 0.11595512
000190 31 2c b3 bd 3d b9 d8 bd 5c ee 9a 3c ba 56 5b bd
       -0.08748663 -0.105822064 0.018912487 -0.053549506
0001a0 81 66 8f 3d e9 10 d3 bc 01 af 64 bd e8 92 d0 3c
       0.07001973 -0.0257649 -0.05583096 0.025460675
0001b0 d1 1c 76 bd 76 00 15 ba 98 a7 3b bd a8 fa 35 3d
       -0.060086075 -0.00056839676 -0.045814127 0.044428498
0001c0 8b ed 97 3d 0f 74 90 3d 6e aa 8e bb 55 04 e1 3d
       0.074183546 0.070533864 -0.004353813 0.109871544
0001d0 82 9e 3c 3b e1 82 9e 3d b6 e2 34 3b 00 c0 04 be
       0.0028781001 0.07739807 0.002760095 -0.12963867
0001e0 12 db b8 bd 4a 78 a9 3c e2 0c 83 3d f0 ea 26 be
       -0.09026159 0.020687241 0.063989416 -0.16300559
0001f0 ac 71 8c 3d ce 50 b8 3d 5c 8c 21 bd 3e de 2c bd
       0.06857619 0.08999787 -0.039440498 -0.042204134
000200 0a 5b 1e 3d 38 85 47 3d df 84 a6 bd ed 94 a9 3d
       0.03866104 0.04871103 -0.08130812 0.082803585
000210 77 e3 90 bc 19 29 42 bd c8 b4 ce 3d a5 d3 ee bc
       -0.017686589 -0.047402475 0.10093075 -0.029153654
000220 d6 69 54 bd 66 4f e1 bd 1f 34 88 bd 35 f1 cb bd
       -0.051858746 -0.11001472 -0.06650566 -0.09958116
000230 ee 3e a4 bc 0b 1f bb bd 19 6b 4d bd a9 bd bb bd
       -0.020049538 -0.0913678 -0.050150964 -0.09167034
000240 20 91 8b bd 1f 39 df bd 3a 6e cc 3d 8c fd 75 3d
       -0.0681479 -0.10899567 0.099819615 0.060056254
000250 bd 11 02 3c 09 90 e8 3b a8 ca 8f bd 57 af 11 be
       0.007938799 0.0070972485 -0.070210755 -0.14227043
000260 e9 30 5a bb e2 ed ca ba 7f db 81 3d c9 f1 13 3d
       -0.0033293313 -0.0015482272 0.06340694 0.036119256
000270 bb 06 46 bd 0d 3e 05 bc d0 05 3b bd 63 c1 a8 3d
       -0.048346262 -0.00813247 -0.04565984 0.082400106
000280 a0 eb 9f bd ff 6a 88 3d 7e af 0c 3d c6 17 46 3d
       -0.07808614 0.06661033 0.03434705 0.048362516
000290 aa 66 b4 3d a7 e6 d8 3d 73 96 eb 3d a4 4a cb 3d
       0.08808644 0.105908684 0.11503305 0.09926346
0002a0 12 4e 82 3c bc 73 8f 3d 87 54 98 bd 1d d5 d4 bc
       0.015906367 0.070044965 -0.07437997 -0.025980527
0002b0 31 61 3a bd 68 d2 c5 3d 0c a8 22 3d f9 fb fc 3c
       -0.045502845 0.096592724 0.039711043 0.030881869
0002c0 15 f5 af bd 5b ac 94 bb 06 98 a8 3c f4 ae 27 3d
       -0.085916676 -0.004537148 0.020580303 0.040938333
0002d0 0c ae b8 3d 29 35 3b 3d 11 71 51 bd 18 41 e8 bc
       0.09017572 0.045704994 -0.05113322 -0.028351352
0002e0 0b c1 8d 3c 18 64 ac 3d cc 06 4e bc 69 a8 19 3c
       0.017303964 0.08417529 -0.012574863 0.009378531
0002f0 ba 67 0b bd bb dd d5 3d 16 ae b2 bc d1 3e 37 3d
       -0.03403447 0.10442682 -0.021811526 0.04473764
000300 32 7d 8b 3d ba c3 21 3d 2c af da bd 9f 75 af bd
       0.068109885 0.0394933 -0.10677943 -0.08567356
000310 a0 0e 12 be 6e 5d d8 bd f8 ce 3b 3d 7c 03 92 3d
       -0.14263391 -0.10564695 0.045851678 0.07129571
000320 6b 7b c5 3c 1a 2a 46 bd f9 96 a5 bd 68 aa 19 bd
       0.024106702 -0.048379995 -0.080854364 -0.037516028
000330 db e7 2c 3d a6 b4 e1 3d 2e 5e 38 3d f7 71 ee bd
       0.042213302 0.11020784 0.04501169 -0.11642831
000340 54 db b5 bb cb 25 95 bd 3c f6 8e bd 15 c0 20 be
       -0.0055498276 -0.07282599 -0.06980559 -0.15698273
000350 a2 19 92 3d d6 db c0 3d 59 5e 74 bd 60 d9 d6 bd
       0.07133795 0.094169304 -0.05966029 -0.1049068
000360 25 f1 4e 3d 22 02 18 bc fc da 37 3e d0 21 75 bc
       0.050522942 -0.009277852 0.1795463 -0.014961675
000370 f3 eb e8 bd b6 d7 1c 39 a6 d2 d0 bd fb ef 52 3d
       -0.11373129 0.00014957678 -0.10196428 0.051498394
000380 2c 76 06 3d 73 74 ec bd 36 1e 37 3d 49 e4 37 bd
       0.03282754 -0.115456484 0.044706546 -0.044895444
000390 c6 82 80 3d f8 49 e1 3d 92 80 50 3d 0f fe e2 bd
       0.06274943 0.110004365 0.050903864 -0.11083614
0003a0 4c 79 7e bd a5 43 d6 3d 4e 04 a7 bd c9 c0 fd 3c
       -0.062127396 0.10462121 -0.08155118 0.030975716
0003b0 63 a4 7a bd 73 80 9a 3d 1a 74 ee bd d9 7d 9e 3d
       -0.061191928 0.07544031 -0.11643238 0.07738847
0003c0 6f df f3 3c a5 27 e2 3d 4d 0d eb bd 03 5f 73 bd
       0.029769627 0.11042718 -0.11477146 -0.059416782
0003d0 98 fe a0 bc 49 81 50 3d 78 5f e2 bc c7 20 41 3d
       -0.01965265 0.050904546 -0.027633414 0.0471504
0003e0 3f a3 7e bd 11 d2 de 3d 15 6d 5f 3a a7 4b aa bd
       -0.062167402 0.10879911 0.00085230294 -0.08315211
0003f0 f3 54 a3 3d b2 d9 1d 3c 2a 3d 8d bd c6 c5 91 3d
       0.07975187 0.009634422 -0.06896432 0.071178004

Func/sequential_2/lstm_2/StatefulPartitionedCall/input/_5 f4 [100, 400]
000000 85 28 5a bd ad 88 ce 3d 8e 61 d7 3d cb 77 7d 3d
       -0.0532613 0.100846626 0.10516654 0.06188182
000010 a3 c7 08 3d b7 66 3f bd 1f 97 90 bd 10 65 40 bd
       0.033393513 -0.046728816 -0.07060074 -0.04697138
000020 1f 15 99 3d 97 55 73 bd 33 4b 96 3c ce e5 4d bd
       0.07474732 -0.059407797 0.018346405 -0.050267987
000030 fb b7 83 3d 87 8b 8f bd 74 df b8 3d ae 3b 02 3d
       0.06431576 -0.070090346 0.09026995 0.031795196
000040 10 c2 13 bd 43 86 41 3d 04 05 23 bd c5 aa 0d 3e
       -0.036073744 0.047247183 -0.039799705 0.13834675
000050 8e ba 7c bd 32 75 4b 3d 80 27 76 3d ea 58 26 3d
       -0.06170135 0.049672313 0.060096264 0.04061214
000060 66 fb 87 bd 60 b0 83 bd 06 83 b9 3c 28 a7 8f bd
       -0.06639747 -0.06430125 0.022645485 -0.070143044
000070 92 75 b9 bc 9a 76 93 3c 0d 5c 0d be 65 10 9a 3c
       -0.02263907 0.01800089 -0.13804646 0.018806646
000080 7d 06 89 bc 38 23 39 bd a0 bd b2 3c f0 a5 29 3d
       -0.016726727 -0.045199603 0.021818936 0.041418016
000090 88 e7 db bc 8f 89 55 bc a0 62 d5 bc 47 5b fc 3a
       -0.026843801 -0.013033285 -0.026048005 0.0019253277
0000a0 89 eb 1a bc e9 c3 2f 3d 5b 7e 92 3b 4e 34 49 bd
       -0.00945557 0.042911444 0.004470629 -0.049122147
0000b0 2c 3e 8d 3c ca 68 b8 3c 3f 96 ae bb 0b b6 67 3d
       0.01724156 0.022510905 -0.0053279693 0.056570094
0000c0 ec 30 5f bb 42 47 4c bc 09 4d 01 3e 22 43 4b 3c
       -0.003405626 -0.012468161 0.12627043 0.012406142
0000d0 42 9a 73 bd 37 2b 07 3d 95 02 d4 bd 94 cf 5a 3d
       -0.059473284 0.033000197 -0.10352055 0.05342062
0000e0 70 dc 64 3d 87 71 6a bc c9 f0 d3 3c dc b2 08 3d
       0.055874288 -0.014309294 0.025871651 0.0333737
0000f0 ee 9b 51 3b 8f 1d 47 3d d1 f8 aa 3d 35 6f b5 3d
       0.003198381 0.048612174 0.08348239 0.08859102
000100 55 e5 c3 3d 00 87 4c 3c 46 d5 78 bd 78 18 89 bd
       0.09565226 0.012483358 -0.06075027 -0.0669412
000110 2f d0 ac bc 77 68 e7 3a a0 39 78 3d ee d1 0a be
       -0.021095363 0.0017655034 0.06060183 -0.13556644
000120 be 07 5f 3d 7a 5f b8 3d e4 4c 99 3a 35 49 a3 bc
       0.054450743 0.09002586 0.0011695889 -0.019932369
000130 fe 15 d1 3d 1f 0e 88 bc f8 93 96 bc da 8f 3c 3d
       0.10209273 -0.016608296 -0.018381104 0.046035625
000140 4d d3 7b 3d 5d 0e f7 bc 31 17 b1 bd 50 e3 88 3d
       0.06148081 -0.030158216 -0.086470015 0.066839814
000150 a2 e7 31 3b 92 13 80 3d 8c e5 cd bc ca 0a 33 bd
       0.002714612 0.06253733 -0.02513387 -0.04371146
000160 98 8f a0 bc 3b 1f f1 3b d4 cd 60 3d 3d 70 c3 3d
       -0.01959972 0.0073584593 0.054883793 0.09542892
000170 ff bb c3 bc 0c 80 c5 3d 5d 36 4e 3d 11 0b d3 3c
       -0.023893354 0.09643564 0.050344814 0.025762113
000180 bf bd 73 3d 6e f3 15 bc f6 aa e1 3a 3e eb 3c 3d
       0.059507128 -0.009152276 0.0017217088 0.046122782
000190 86 6b b6 bc 3e 1c af 3d 81 8c 16 3c e1 5a 45 3d
       -0.022268068 0.08550309 0.009188772 0.048182372
0001a0 01 b4 9a 3d 6c 82 8a 3d 59 5a 88 3d 21 f2 15 bd
       0.07553864 0.06763157 0.066578574 -0.036607865
0001b0 f9 91 83 bc 53 37 83 bd 9a a8 9a bc c0 2e 5c 3d
       -0.016060816 -0.06407037 -0.018879224 0.05375552
0001c0 f1 44 fe 3c d0 27 cc 3d 40 a1 00 3d 2c 1a eb bc
       0.031038733 0.09968531 0.03140378 -0.028699003
0001d0 5c ff 69 3d 9c f5 1d bd 86 c9 4f 3d 60 f6 55 3c
       0.057128295 -0.03856431 0.050729297 0.013059229
0001e0 20 a5 1a 3c ed df 57 3c 67 a6 16 3d 26 ea 46 3d
       0.009438783 0.013175947 0.036779787 0.048563145
0001f0 30 df c3 3d c3 54 d0 3c 75 3b 04 3c 94 5a 4b 3d
       0.09564054 0.025431043 0.008070816 0.04964693
000200 3f be f4 bc fa ad 93 bc 08 f7 b1 3d 87 83 3e 3d
       -0.029875873 -0.018027294 0.086896956 0.046512153
000210 cd 40 2a bb cd 81 54 3a 49 b7 03 bc 6b cd 02 3d
       -0.0025978566 0.00081065 -0.008039304 0.031934183
000220 9f 52 ae 3c 22 f1 bc 3d ab 8e ad 3d aa 45 6f 3d
       0.021279631 0.0922568 0.084744774 0.058416046
000230 86 eb 5c 3d 94 be 94 3d 6e 13 b4 bd 33 2d 11 3d
       0.05393555 0.072629124 -0.087927684 0.035443496
000240 f1 95 6a 3c 18 1e fb 3c 2c 23 11 3d 09 99 e1 3c
       0.014317975 0.030653998 0.035433933 0.027538793
000250 d7 14 a6 bb fe 33 64 3c 10 0b 3e bc 55 ba ba 3d
       -0.0050684023 0.0139284115 -0.011599317 0.09117571
000260 9c 43 ee 3c 8e 25 21 3d 36 33 46 3d ce 10 82 bb
       0.029084973 0.039342456 0.048388682 -0.0039692884
000270 13 bc b4 3d 6e 6d cf 3c a6 3e 1e 3d 0e c5 9d bb
       0.08824935 0.025320735 0.038633965 -0.0048147505
000280 20 37 63 3d 94 41 76 3c 9b 26 7e 3d b3 04 ad 3d
       0.055472493 0.0150302835 0.062048536 0.08448162
000290 e1 1a ca bd 4c 4a 6a 3d 47 3f b4 3d b8 55 10 bc
       -0.09868408 0.05719976 0.08801132 -0.008809499
0002a0 cc 81 ac 3d fe 54 91 bd f0 c7 98 37 0a af 30 3d
       0.08423194 -0.07096289 1.8212915e-05 0.04313568
0002b0 e8 f2 58 3c 86 15 3b 3d 17 bd 21 bd 89 26 72 3d
       0.013241507 0.045674823 -0.03948697 0.05911878
0002c0 df 3b 41 3d ab 46 d3 3d 10 21 0c 3e 8e 65 0d 3d
       0.04717624 0.10316213 0.13684487 0.03452068
0002d0 e2 82 c9 3d 0a 4a fa 3d fd ca ce bd 69 fc 3e 3d
       0.09839417 0.12221153 -0.10097311 0.046627436
0002e0 83 d6 91 bd 05 5d c9 3c 67 d4 47 bd 31 e3 a3 3d
       -0.07120993 0.024580488 -0.048786547 0.08002318
0002f0 2e 4c 8b 3d bf 2a 01 3d a5 ed 11 3d 24 4d 14 bd
       0.068016395 0.031534906 0.035627026 -0.03620638
000300 f3 66 75 3d 46 13 91 3d 11 25 6a 3d d9 52 c2 bc
       0.059912633 0.07083754 0.057164256 -0.023721145
000310 58 69 57 3d c4 02 b4 3d 75 36 c5 bd ce e6 a7 3c
       0.052590698 0.0878959 -0.096295275 0.020495798
000320 a5 0f f4 bc c2 b4 b7 3c e7 f2 05 bd eb 80 69 bc
       -0.029792616 0.02242506 -0.032702353 -0.014251928
000330 27 6e 67 bd af 1d 91 3d 03 48 d4 bc 03 ee 98 3c
       -0.056501534 0.0708574 -0.025913244 0.01866818
000340 0d 66 28 3d 14 0b c6 3c af 0d 80 3c 33 e5 d6 3c
       0.04111295 0.024175204 0.015631525 0.026232338
000350 52 d8 1b 3d 7a 72 f1 3b b6 eb ae 3d 0b d6 9b bc
       0.038048096 0.007368383 0.08541052 -0.019022962
000360 80 75 23 bd 6c 09 b5 bd 4a ff 2f 3b 2c f9 25 3c
       -0.03990698 -0.08839688 0.0026855045 0.010130208
000370 96 11 c7 bd 02 a7 59 bd 45 3f 15 be 56 b5 0a 3a
       -0.09720151 -0.053137787 -0.14574917 0.00052913034
000380 83 40 03 bd 14 e6 34 bd 01 46 0c bd 73 8d 4a 3c
       -0.032043945 -0.044164732 -0.03424645 0.012362826
000390 da 25 b0 bd 58 d7 37 bd 9b db 1d 3d 49 a2 c3 3b
       -0.086009696 -0.044883102 0.03853951 0.0059702736
0003a0 0f ea 44 3d 4b af 15 bd 09 d4 b6 bd de df 9b 3c
       0.04807478 -0.036544126 -0.08927161 0.019027647
0003b0 64 bc 0c bd bf 7e 2b 3d 23 b1 f9 bc 57 2b d2 bc
       -0.03435935 0.04186892 -0.030479973 -0.025655432
0003c0 d2 a3 cb 3b b6 53 f0 3c fe b1 4d 3d 69 4a 84 3c
       0.0062145973 0.029336791 0.050218575 0.016148763
0003d0 cf 9c 42 bc a6 55 7e bb eb 5b 99 3d 60 96 ea bd
       -0.011878206 -0.0038808375 0.07488235 -0.11454463
0003e0 67 ad 97 bc f8 c2 b9 3c 83 38 a0 3b f9 50 e1 bd
       -0.018515302 0.022675976 0.004889549 -0.110017724
0003f0 65 e2 0f 3d e7 42 a4 bd cd fc 14 3d 9b 44 2f 3b
       0.035128016 -0.08020573 0.036373902 0.0026743773

Func/sequential_2/lstm_2/StatefulPartitionedCall/input/_6 f4 [400]
000000 14 e2 18 3d 64 3c 47 3c 59 7c 19 3d d9 42 ef 3c
       0.03732498 0.012160394 0.037472103 0.02920668
000010 84 19 20 3d aa 6e b1 bb 87 74 f6 3c ec 1a b3 bb
       0.039086834 -0.0054148035 0.030084861 -0.005465856
000020 51 66 9a 3b 7e 46 1f bd 8c 27 e9 bc 23 17 84 bb
       0.004711904 -0.038885586 -0.02846124 -0.0040310784
000030 a2 1a 46 3c 4c 4c ca bc b3 ee 96 bb a4 bc 10 bc
       0.012091311 -0.024694584 -0.004606092 -0.008834038
000040 e2 5c a0 bc 80 1d 57 3c d8 f2 c4 3c fe e7 4f 3d
       -0.01957554 0.013129592 0.024041578 0.050758354
000050 47 9a ec bc 87 e1 9a 3c 66 4a 96 3c 55 ec 54 bc
       -0.028882159 0.018906368 0.018346023 -0.012995799
000060 95 6e 82 3b 84 dc 4f 3c 4e 66 6b 3b c8 01 ac bb
       0.0039804676 0.012686852 0.0035919133 -0.005249236
000070 d9 ac d2 3c 30 bd d4 bb f7 78 a8 bc ee 83 98 3c
       0.025717186 -0.0064922795 -0.020565493 0.018617596
000080 64 c8 d7 3c fd 0a a9 bc 22 25 80 3b b4 c2 e2 bb
       0.02634067 -0.020635122 0.0039106766 -0.006920183
000090 24 0a d1 3c fd 7c a1 3c 7e 93 82 bd 6c 47 96 bd
       0.02551753 0.01971292 -0.06375788 -0.073378414
0000a0 eb e6 09 3d 0e 1b 26 bc 76 fa 26 3b f3 ce 15 3d
       0.033667486 -0.010138286 0.0025478876 0.036574315
0000b0 18 62 08 38 8b cc 63 bb c7 dd 2e bc c9 8e 57 bc
       3.2516284e-05 -0.0034759368 -0.010672993 -0.013156601
0000c0 31 55 20 3d 09 63 a7 bb c2 4e 06 3d 19 1f f9 b9
       0.039143745 -0.0051082415 0.032789953 -0.0004751615
0000d0 6f b2 8e 3c d0 86 4a 3c f2 a9 50 bd ae f8 3a 3c
       0.017419068 0.012361243 -0.050943322 0.011411829
0000e0 25 82 fc bb 76 8e 1a bc d5 4b 27 bb 19 7f bd 3c
       -0.007705944 -0.009433379 -0.0025527377 0.023131894
0000f0 5d e1 8c 3c 96 20 74 3c 71 e8 db 3c 47 55 87 3c
       0.017197305 0.014900347 0.026844235 0.016520156
000100 94 8f ad 3c 0a 70 25 bb e9 2c 22 bb 96 5c 53 bc
       0.021186627 -0.0025243782 -0.0024746007 -0.012900492
000110 5f 6e 27 bc cf 76 85 39 ea cb 9d bc b0 dc ca bb
       -0.010219186 0.00025456256 -0.019262273 -0.006190859
000120 79 77 68 3c 15 c0 dd 3b 07 a3 2e bb 7f 3e ee 3c
       0.014188641 0.0067672827 -0.0026647465 0.029082535
000130 2f 28 1a 3d b8 e0 b8 3c d7 67 30 3b 11 76 16 bc
       0.03763598 0.022568092 0.0026917362 -0.009183423
000140 ef 1d 11 3d a7 02 bc 3c 06 82 68 3c ff a3 c2 3c
       0.035428938 0.022950483 0.014191156 0.02375984
000150 5b 55 e9 3c 6f 9b 8a 3c 57 5d 0a bd 95 90 c6 3c
       0.028483083 0.01691982 -0.033780422 0.024238864
000160 a5 b2 08 bd 5e c2 55 3b 46 56 8c 3c 27 de 37 3c
       -0.033373494 0.0032617073 0.017130982 0.011222399
000170 f2 8a b2 3c a2 3a 04 3d b1 2d 2c 3c 76 99 b0 3c
       0.02179477 0.03228248 0.010508941 0.02155755
000180 27 af 2e bb 03 9a 6d bc 9c f6 87 3a 20 95 85 3c
       -0.0026654692 -0.014502051 0.0010373178 0.01630646
000190 e1 3a 85 3f aa aa 84 3f 58 cf 82 3f b0 70 87 3f
       1.0408593 1.0364583 1.0219526 1.0581264
0001a0 3a 05 84 3f fd f2 82 3f 77 e0 81 3f 12 f7 7e 3f
       1.0314095 1.0230404 1.0146626 0.9959575
0001b0 7a ae 83 3f 16 0a 7a 3f 2a 50 7e 3f 46 0f 84 3f
       1.0287621 0.9767164 0.9934107 1.0317161
0001c0 f8 36 83 3f 0e 5a 85 3f c0 65 83 3f 34 86 80 3f
       1.025115 1.0418108 1.0265427 1.0040956
0001d0 a4 34 83 3f b4 e5 7e 3f 69 9f 81 3f 11 c8 84 3f
       1.025044 0.9956925 1.0126773 1.0373555
0001e0 9c 95 80 3f 43 de 84 3f 6c eb 84 3f d3 a2 84 3f
       1.0045657 1.0380329 1.0384345 1.036219
0001f0 9c 95 81 3f fd c9 82 3f 05 75 7f 3f 70 5b 81 3f
       1.0123782 1.0217892 0.9978793 1.010603
000200 2c 06 87 3f 88 1d 85 3f d2 47 80 3f 0f bd 83 3f
       1.0548759 1.0399637 1.0021918 1.0292071
000210 77 32 84 3f 05 45 80 3f 00 2c 80 3f 39 12 82 3f
       1.0327901 1.0021063 1.0013428 1.0161811
000220 b4 b5 84 3f ae 99 83 3f b5 9b 84 3f 6c ea 81 3f
       1.0367951 1.0281274 1.0360018 1.0149665
000230 e7 1d 83 3f 93 9f 86 3f 69 15 7f 3f 4d 14 83 3f
       1.02435 1.0517448 0.99642044 1.024057
000240 2c 4f 82 3f 70 bf 81 3f 27 71 80 3f dd f5 7d 3f
       1.0180411 1.0136547 1.0034531 0.9920328
000250 61 82 83 3f 6a 17 83 3f 75 55 84 3f 3e f3 87 3f
       1.0274163 1.024152 1.033858 1.0621107
000260 2c 83 83 3f b9 c8 82 3f 6a 3a 85 3f 10 9d 83 3f
       1.0274405 1.0217506 1.0408452 1.0282307
000270 b3 2c 82 3f 47 22 80 3f cb 50 83 3f 18 4d 83 3f
       1.0169891 1.0010461 1.0259031 1.0257902
000280 63 7b 83 3f c3 af 85 3f 94 43 84 3f ed 02 85 3f
       1.027203 1.0444263 1.0333123 1.0391518
000290 2e e8 81 3f 37 e9 80 3f d2 0c 82 3f cb 83 7e 3f
       1.0148981 1.0071172 1.0160162 0.9941985
0002a0 ba f7 80 3f f3 d8 83 3f 41 08 82 3f 69 8f 7f 3f
       1.00756 1.0300583 1.0158769 0.998282
0002b0 d2 06 7e 3f 05 c9 83 3f 18 3e 83 3f e3 d1 86 3f
       0.99229157 1.0295721 1.0253325 1.0532802
0002c0 90 75 82 3f 64 99 85 3f ad b9 80 3f 26 06 80 3f
       1.0192127 1.0437436 1.0056664 1.0001876
0002d0 95 17 82 3f 5c b9 83 3f 9d 3c 86 3f 4a 02 84 3f
       1.0163447 1.0290942 1.0487248 1.0313199
0002e0 55 0c 83 3f ce 5f 84 3f 34 2a 80 3f 75 09 83 3f
       1.0238138 1.0341737 1.0012879 1.0237261
0002f0 4f f6 81 3f d3 d0 7f 3f 4e 72 83 3f 0f 2f 83 3f
       1.0153292 0.99928015 1.0269258 1.0248736
000300 11 75 84 3f f3 dd 85 3f 1f 78 83 3f b2 2b 87 3f
       1.0348226 1.0458359 1.0271033 1.056021
000310 c7 32 83 3f 18 c5 81 3f 1a d5 80 3f 52 5b 85 3f
       1.0249871 1.0138273 1.0065033 1.0418494
000320 79 bc 0d 3d 3f 68 c4 bc c7 e3 b4 3a ba 0b ab bc
       0.03460357 -0.02397549 0.0013800793 -0.020879615
000330 48 e1 7e 3c a2 7e 86 3c 14 53 0a 3c bd 6f f3 3a
       0.015556641 0.016417805 0.008442659 0.0018572729
000340 93 e7 cd bc ff fd fe bc fd 41 b0 3b c5 c0 ec 3c
       -0.025134837 -0.031126974 0.00537896 0.028900513
000350 ce bc d4 bc eb a3 d4 3c a0 19 0c 3d 92 9b a2 3c
       -0.025968935 0.025957068 0.034204125 0.019849572
000360 9b 70 67 3c 12 b2 05 bc a2 ad e7 bc c3 63 3f bc
       0.014125968 -0.008160131 -0.028281037 -0.0116815
000370 8a dc 86 3b 90 c4 08 3c ac d9 e9 bc ad bb e5 3b
       0.004115646 0.008347645 -0.028546177 0.007010898
000380 1c 20 2f 3c 8a bf 89 bc 5a 28 aa bc ed ed 77 bc
       0.010688808 -0.016814966 -0.020771194 -0.0151324095
000390 38 1a c1 bc be 35 61 3c 67 a3 2c 3c 20 fb 45 39
       -0.023572072 0.013745723 0.010537005 0.00018880935
0003a0 3e 0c f0 3c e9 8e d9 3b a9 5f 8d b9 3b b9 9a 3c
       0.029302713 0.0066393507 -0.00026964888 0.018887153
0003b0 a8 ea c1 3c 0d 9c 96 bc 89 20 a7 bc 2b f3 01 bb
       0.023671463 -0.018384958 -0.020401256 -0.0019828777
0003c0 71 aa c7 bc 51 9f 6a 3c f2 3c 16 3d 96 7e f2 3a
       -0.024373265 0.014320211 0.036679216 0.001850086
0003d0 51 33 3b bc 07 7c 0d bd 86 1c d2 3c 97 c2 da bc
       -0.011425809 -0.03454211 0.025648367 -0.026704116
0003e0 82 9e 8b bc 20 30 de 3c cb ad 04 bd a8 e2 32 bc
       -0.017043356 0.027122557 -0.032392304 -0.010918297
0003f0 cd 94 b6 3c 48 f1 c0 ba c7 19 b1 bc 01 62 07 3d
       0.02228775 -0.0014720345 -0.021618737 0.03305245

TensorArrayV2_1@__inference_standard_lstm_3930 f4 [91, 1, 100]
000000 00 00 00 00 00 00 00 00 00 00 00 00 00 00 00 00
       0.0 0.0 0.0 0.0
000010 00 00 00 00 00 00 00 00 00 00 00 00 00 00 00 00
       0.0 0.0 0.0 0.0
000020 00 00 00 00 00 00 00 00 00 00 00 00 00 00 00 00
       0.0 0.0 0.0 0.0
000030 00 00 00 00 00 00 00 00 00 00 00 00 00 00 00 00
       0.0 0.0 0.0 0.0
000040 00 00 00 00 00 00 00 00 00 00 00 00 00 00 00 00
       0.0 0.0 0.0 0.0
000050 00 00 00 00 00 00 00 00 00 00 00 00 00 00 00 00
       0.0 0.0 0.0 0.0
000060 00 00 00 00 00 00 00 00 00 00 00 00 00 00 00 00
       0.0 0.0 0.0 0.0
000070 00 00 00 00 00 00 00 00 00 00 00 00 00 00 00 00
       0.0 0.0 0.0 0.0
000080 00 00 00 00 00 00 00 00 00 00 00 00 00 00 00 00
       0.0 0.0 0.0 0.0
000090 00 00 00 00 00 00 00 00 00 00 00 00 00 00 00 00
       0.0 0.0 0.0 0.0
0000a0 00 00 00 00 00 00 00 00 00 00 00 00 00 00 00 00
       0.0 0.0 0.0 0.0
0000b0 00 00 00 00 00 00 00 00 00 00 00 00 00 00 00 00
       0.0 0.0 0.0 0.0
0000c0 00 00 00 00 00 00 00 00 00 00 00 00 00 00 00 00
       0.0 0.0 0.0 0.0
0000d0 00 00 00 00 00 00 00 00 00 00 00 00 00 00 00 00
       0.0 0.0 0.0 0.0
0000e0 00 00 00 00 00 00 00 00 00 00 00 00 00 00 00 00
       0.0 0.0 0.0 0.0
0000f0 00 00 00 00 00 00 00 00 00 00 00 00 00 00 00 00
       0.0 0.0 0.0 0.0
000100 00 00 00 00 00 00 00 00 00 00 00 00 00 00 00 00
       0.0 0.0 0.0 0.0
000110 00 00 00 00 00 00 00 00 00 00 00 00 00 00 00 00
       0.0 0.0 0.0 0.0
000120 00 00 00 00 00 00 00 00 00 00 00 00 00 00 00 00
       0.0 0.0 0.0 0.0
000130 00 00 00 00 00 00 00 00 00 00 00 00 00 00 00 00
       0.0 0.0 0.0 0.0
000140 00 00 00 00 00 00 00 00 00 00 00 00 00 00 00 00
       0.0 0.0 0.0 0.0
000150 00 00 00 00 00 00 00 00 00 00 00 00 00 00 00 00
       0.0 0.0 0.0 0.0
000160 00 00 00 00 00 00 00 00 00 00 00 00 00 00 00 00
       0.0 0.0 0.0 0.0
000170 00 00 00 00 00 00 00 00 00 00 00 00 00 00 00 00
       0.0 0.0 0.0 0.0
000180 00 00 00 00 00 00 00 00 00 00 00 00 00 00 00 00
       0.0 0.0 0.0 0.0
000190 00 00 00 00 00 00 00 00 00 00 00 00 00 00 00 00
       0.0 0.0 0.0 0.0
0001a0 00 00 00 00 00 00 00 00 00 00 00 00 00 00 00 00
       0.0 0.0 0.0 0.0
0001b0 00 00 00 00 00 00 00 00 00 00 00 00 00 00 00 00
       0.0 0.0 0.0 0.0
0001c0 00 00 00 00 00 00 00 00 00 00 00 00 00 00 00 00
       0.0 0.0 0.0 0.0
0001d0 00 00 00 00 00 00 00 00 00 00 00 00 00 00 00 00
       0.0 0.0 0.0 0.0
0001e0 00 00 00 00 00 00 00 00 00 00 00 00 00 00 00 00
       0.0 0.0 0.0 0.0
0001f0 00 00 00 00 00 00 00 00 00 00 00 00 00 00 00 00
       0.0 0.0 0.0 0.0
000200 00 00 00 00 00 00 00 00 00 00 00 00 00 00 00 00
       0.0 0.0 0.0 0.0
000210 00 00 00 00 00 00 00 00 00 00 00 00 00 00 00 00
       0.0 0.0 0.0 0.0
000220 00 00 00 00 00 00 00 00 00 00 00 00 00 00 00 00
       0.0 0.0 0.0 0.0
000230 00 00 00 00 00 00 00 00 00 00 00 00 00 00 00 00
       0.0 0.0 0.0 0.0
000240 00 00 00 00 00 00 00 00 00 00 00 00 00 00 00 00
       0.0 0.0 0.0 0.0
000250 00 00 00 00 00 00 00 00 00 00 00 00 00 00 00 00
       0.0 0.0 0.0 0.0
000260 00 00 00 00 00 00 00 00 00 00 00 00 00 00 00 00
       0.0 0.0 0.0 0.0
000270 00 00 00 00 00 00 00 00 00 00 00 00 00 00 00 00
       0.0 0.0 0.0 0.0
000280 00 00 00 00 00 00 00 00 00 00 00 00 00 00 00 00
       0.0 0.0 0.0 0.0
000290 00 00 00 00 00 00 00 00 00 00 00 00 00 00 00 00
       0.0 0.0 0.0 0.0
0002a0 00 00 00 00 00 00 00 00 00 00 00 00 00 00 00 00
       0.0 0.0 0.0 0.0
0002b0 00 00 00 00 00 00 00 00 00 00 00 00 00 00 00 00
       0.0 0.0 0.0 0.0
0002c0 00 00 00 00 00 00 00 00 00 00 00 00 00 00 00 00
       0.0 0.0 0.0 0.0
0002d0 00 00 00 00 00 00 00 00 00 00 00 00 00 00 00 00
       0.0 0.0 0.0 0.0
0002e0 00 00 00 00 00 00 00 00 00 00 00 00 00 00 00 00
       0.0 0.0 0.0 0.0
0002f0 00 00 00 00 00 00 00 00 00 00 00 00 00 00 00 00
       0.0 0.0 0.0 0.0
000300 00 00 00 00 00 00 00 00 00 00 00 00 00 00 00 00
       0.0 0.0 0.0 0.0
000310 00 00 00 00 00 00 00 00 00 00 00 00 00 00 00 00
       0.0 0.0 0.0 0.0
000320 00 00 00 00 00 00 00 00 00 00 00 00 00 00 00 00
       0.0 0.0 0.0 0.0
000330 00 00 00 00 00 00 00 00 00 00 00 00 00 00 00 00
       0.0 0.0 0.0 0.0
000340 00 00 00 00 00 00 00 00 00 00 00 00 00 00 00 00
       0.0 0.0 0.0 0.0
000350 00 00 00 00 00 00 00 00 00 00 00 00 00 00 00 00
       0.0 0.0 0.0 0.0
000360 00 00 00 00 00 00 00 00 00 00 00 00 00 00 00 00
       0.0 0.0 0.0 0.0
000370 00 00 00 00 00 00 00 00 00 00 00 00 00 00 00 00
       0.0 0.0 0.0 0.0
000380 00 00 00 00 00 00 00 00 00 00 00 00 00 00 00 00
       0.0 0.0 0.0 0.0
000390 00 00 00 00 00 00 00 00 00 00 00 00 00 00 00 00
       0.0 0.0 0.0 0.0
0003a0 00 00 00 00 00 00 00 00 00 00 00 00 00 00 00 00
       0.0 0.0 0.0 0.0
0003b0 00 00 00 00 00 00 00 00 00 00 00 00 00 00 00 00
       0.0 0.0 0.0 0.0
0003c0 00 00 00 00 00 00 00 00 00 00 00 00 00 00 00 00
       0.0 0.0 0.0 0.0
0003d0 00 00 00 00 00 00 00 00 00 00 00 00 00 00 00 00
       0.0 0.0 0.0 0.0
0003e0 00 00 00 00 00 00 00 00 00 00 00 00 00 00 00 00
       0.0 0.0 0.0 0.0
0003f0 00 00 00 00 00 00 00 00 00 00 00 00 00 00 00 00
       0.0 0.0 0.0 0.0

sequential_2/dense_3/MatMul f4 [100, 100]
000000 f0 d4 72 bd 02 01 f2 3d 5a 5b b4 b8 33 1d 22 3c
       -0.059285104 0.118165985 -8.6000844e-05 0.009894657
000010 b6 be c6 bd 07 05 1d 3e cd c6 88 bd 8c aa 60 3d
       -0.09704344 0.15333949 -0.06678543 0.054850146
000020 cd be 44 3e 3b f8 80 bd 70 66 e9 ba c7 d7 4d bd
       0.1921341 -0.06297346 -0.0017807018 -0.05025461
000030 ad 8d 1f bd ec f0 b4 bd 03 19 af bc f8 d4 92 3d
       -0.038953472 -0.08835015 -0.021374231 0.07169527
000040 b2 ec 41 3e c5 71 03 3e 11 18 0c be b1 06 26 3e
       0.18937948 0.12836368 -0.13681056 0.1621349
000050 35 cc 31 bc 42 c5 50 bd 69 d2 15 be 73 45 38 be
       -0.010851909 -0.05096937 -0.14631046 -0.17995243
000060 91 8f c1 3d c9 cb ba bc 8e 81 42 be 05 52 f4 3d
       0.09451211 -0.02280225 -0.18994734 0.119297065
000070 b1 4a ef 3c 0f d6 bb 3d 35 33 76 3d 3e 69 12 be
       0.02921042 0.09171688 0.06010743 -0.14297959
000080 35 96 86 3d 9c 97 4c be 4f 3c 11 3d 2b 51 90 3d
       0.065716185 -0.1997971 0.035457905 0.070467316
000090 4e 7b 3b 3d b4 5b 0a bd 74 a8 6b 3b 0e 8f c5 bc
       0.04577189 -0.03377886 0.003595856 -0.024116065
0000a0 5c 29 ff 3d cc 81 a9 3d 63 2e 01 3c 2b 49 db 3d
       0.124590605 0.0827671 0.007884595 0.10707315
0000b0 6f a7 49 be 07 7f 2a bc f6 aa cd bc e3 05 80 bd
       -0.19692777 -0.010406262 -0.025105935 -0.06251123
0000c0 cf bc 56 3d ce 20 28 3e 0a cc a7 bc c6 64 83 be
       0.052426156 0.16418764 -0.020483036 -0.25662822
0000d0 68 c8 22 3e db a6 e8 bd cf 0c 07 3e 66 ff 4e 3e
       0.15896761 -0.1135995 0.1318848 0.20214614
0000e0 42 ea 22 3e 1b d9 9e bc 58 3d 12 be fa a4 52 be
       0.15909675 -0.019390633 -0.14281213 -0.20570746
0000f0 f8 3a 3f bc e8 9d f3 3d 74 3a 03 3e 44 bd e7 3d
       -0.011671774 0.118953526 0.12815267 0.113153964
000100 d1 55 dd 3d 98 b9 f5 bd 38 34 a0 3d 99 55 28 3e
       0.10807384 -0.1199829 0.0782246 0.16438903
000110 ea dc b0 bb c4 02 cd bd a4 ca 3d 3c 69 b7 8a 3d
       -0.0053974288 -0.10010293 0.011583958 0.06773264
000120 92 20 4e be 6a d4 24 be 4f 12 0a 3e 0f e9 d1 bd
       -0.20129612 -0.16096655 0.13483547 -0.102495305
000130 26 b3 cf 3d 04 71 ec 3d a8 6a 51 be 0c f0 06 3c
       0.10141592 0.115449935 -0.20450842 0.008235943
000140 ac 52 f1 3d 07 52 b8 3d 18 a0 36 bd ba 0f 37 be
       0.117833465 0.090000205 -0.04458627 -0.17877093
000150 31 12 a5 3d ff f3 27 3e 08 22 0d 3e e5 e7 9f bb
       0.0806011 0.16401671 0.13782513 -0.004879939
000160 8f a4 ef 3d 5a 3d 37 be 6c f3 2c 3e c5 f7 ef bc
       0.11701309 -0.17894498 0.16889733 -0.02929295
000170 47 05 1d be a0 94 d3 bc b8 cd 1d be c9 74 f6 bd
       -0.15334044 -0.025827706 -0.15410507 -0.12033994
000180 82 42 49 bd e2 9f b0 3d 59 28 2c 3e 8c 32 3a be
       -0.049135692 0.08624245 0.16812266 -0.18183345
000190 dd 76 1f 3e 01 8b 13 3e 9d 83 15 3e 42 99 91 bd
       0.15572686 0.14408495 0.14600988 -0.0710931
0001a0 5e 99 fe bd 3b ab 76 3d 82 67 16 be a9 9f ef 3d
       -0.12431596 0.06022189 -0.14687923 0.11700375
0001b0 20 55 46 3e d8 a0 b3 3d 19 eb 0a 3e 1a c2 7f bd
       0.1936841 0.08770913 0.13566245 -0.06244097
0001c0 d5 b5 9e bd 7d 1b fc bd 9e 1d e2 bd b3 e3 b5 3d
       -0.077495255 -0.123099305 -0.11040805 0.08881321
0001d0 8f 8d 90 bc e3 41 41 3e 84 ac f2 bd 43 81 1d 3d
       -0.017645625 0.1887279 -0.11849311 0.03845335
0001e0 76 8a 36 bd e5 3e 21 bd bb 9f 99 bd 62 1d 73 3d
       -0.04456564 -0.03936662 -0.07501169 0.059354194
0001f0 1a 05 01 3e 66 75 3c 3d 0d d6 66 bd 1e a5 0b 3e
       0.12599602 0.046010397 -0.05635648 0.13637206
000200 cc 9e 37 bd d7 e4 d1 bd 40 b0 fb 3d 00 61 6e bb
       -0.044829175 -0.10248726 0.122894764 -0.0036373734
000210 4f 24 99 bd 65 4f 34 3e 4b dc 3d 3e 96 22 5e bb
       -0.074776284 0.17608412 0.18541066 -0.0033895127
000220 4d 34 b8 3d a3 24 1e 3e 84 82 01 3d 6c 21 27 3e
       0.089943506 0.15443663 0.03161861 0.16321343
000230 63 c6 ed 3d 61 67 58 be b7 29 b8 bd c8 3a 26 3e
       0.11610105 -0.21133186 -0.089923315 0.16233361
000240 b5 44 2a be 42 41 21 be 28 86 cc bd 94 d2 35 3d
       -0.16627772 -0.1574755 -0.09986526 0.044390276
000250 b2 ee af 3d 48 36 99 bd d4 46 8f bd b7 5e 2b 3d
       0.085904494 -0.074810565 -0.06995931 0.041838374
000260 b3 04 3c 3e 98 4e 1e 3d 06 9f 1c 3e 03 51 33 3d
       0.18361168 0.03864917 0.15295038 0.04377843
000270 c9 df d1 bd 95 8e e4 bb f7 f9 da bd 62 a2 ce 3d
       -0.10247762 -0.006975005 -0.10692208 0.10089566
000280 a2 a7 ed 3d 69 3c 32 be 03 89 dc 3d 5a 59 12 be
       0.11604239 -0.17405857 0.107683204 -0.14291897
000290 12 78 53 3c 0d a3 08 3d de 50 07 3d 7c 4e fc 3c
       0.012907045 0.033358622 0.033036105 0.030799143
0002a0 58 8e 26 3d 0d 03 dc 3d 76 85 16 bd 6c e9 d8 3d
       0.040663093 0.107427694 -0.036748372 0.10591397
0002b0 6e 76 8a 3d 01 94 b9 bc c2 8b 04 3e d2 57 03 be
       0.0676087 -0.022653582 0.12943938 -0.1282647
0002c0 57 02 41 3d 60 35 07 3d f8 d2 98 3d b5 7c a1 3d
       0.047121372 0.033009887 0.07462114 0.07885114
0002d0 c5 e4 0c bd 28 93 11 3e ed e8 20 3e 1d 85 f0 bd
       -0.03439786 0.14216292 0.15713854 -0.11744139
0002e0 e2 42 38 3d 56 40 37 be 3c 72 11 be 51 38 18 be
       0.04498566 -0.17895636 -0.14203733 -0.14865233
0002f0 05 e8 2d 3e e5 d8 9e bd a9 4a b2 3c 45 f7 53 3e
       0.1698304 -0.07756213 0.021764116 0.20699795
000300 e2 89 81 bd 15 31 5a 3d de 4e 37 3d b3 84 4f 3e
       -0.06325127 0.053269465 0.044752948 0.20265464
000310 9e 68 cf bd 5a 03 14 3d a4 ea f5 3c 77 d9 d7 bd
       -0.10127376 0.03613601 0.030019112 -0.10539525
000320 6b 61 18 3e 74 35 29 3e f2 de 95 bd 45 23 22 bd
       0.14880912 0.16524297 -0.07317914 -0.039584417
000330 82 c9 43 3d b4 70 b0 bd 4a b3 52 3d eb 7e 22 3e
       0.047799595 -0.086152464 0.051440515 0.15868728
000340 a8 a0 66 3c 0e e5 1c 3e 20 63 80 3c cb 8b cf bd
       0.014076389 0.15321752 0.015672266 -0.10134085
000350 31 08 64 3d 17 4d 74 be ab a9 5c bd 4e eb 2d 3e
       0.055671874 -0.23857532 -0.053872745 0.16984293
000360 d6 9d a6 bc 56 4b b0 bd 82 10 b0 3d 9f 89 56 bd
       -0.020338934 -0.08608119 0.085968986 -0.05237734
000370 09 80 70 3e a8 d8 15 be c5 32 9b bd d2 b3 bf bd
       0.23486342 -0.14633429 -0.07578043 -0.0936047
000380 53 4a e6 bc 45 99 df 3d 3f 29 d2 3d c5 3a 8f 3b
       -0.028111612 0.10917906 0.10261773 0.0043710195
000390 a0 f1 34 3e 71 cd 31 be a3 a3 85 be 4f db 8a 3e
       0.17670298 -0.17363526 -0.26101407 0.27120444
0003a0 78 e3 47 bd 72 0c c4 3c 17 14 cf bc ff 4d 40 3c
       -0.048800915 0.023931716 -0.025278134 0.011737346
0003b0 c6 9e d1 3d 85 fd 5b 3e 70 38 9f 3d 23 c0 6e 3e
       0.10235362 0.21483429 0.077744365 0.23315482
0003c0 48 b5 8c bd e4 49 1f be 52 b0 df bd 26 fb 80 3e
       -0.06870514 -0.15555531 -0.10922302 0.2519161
0003d0 88 43 4f 3d 36 63 6c be 64 ea 40 3d c8 85 4e be
       0.050601512 -0.23084721 0.047098532 -0.20168221
0003e0 c7 3d fd 3b 79 d7 07 3e 9c 6e bb 3d a4 48 df 3d
       0.0077283117 0.1326579 0.091519564 0.10902527
0003f0 e1 b1 a2 bd 3c 97 51 3c 9e ec 8c bb da cd a1 3d
       -0.07944084 0.012792405 -0.004300668 0.07900591

sequential_2/dense_4/MatMul f4 [10, 100]
000000 57 f2 98 3d 4f b2 64 bd 81 24 e6 3d 5d 5e 5b bc
       0.07468098 -0.05583411 0.11237431 -0.013389197
000010 ed e3 1f be b0 16 89 3d 47 f1 61 3e 10 fd 00 3e
       -0.1561429 0.066937804 0.22064696 0.12596536
000020 ef 42 34 be 22 64 8c bc c5 b8 06 3e 41 69 8c be
       -0.17603658 -0.01713759 0.13156421 -0.27424052
000030 54 75 b0 3d 03 2c 6c be ee 7e ae 3c ff 3b 22 3e
       0.086161286 -0.23063664 0.02130076 0.15843199
000040 5f 57 5f be 0c e1 27 3e 13 6a 7a be 51 65 e6 bc
       -0.21810673 0.16394442 -0.24454527 -0.028124483
000050 41 2f fb 3c 92 42 23 3e 46 b6 1a be a7 06 99 3d
       0.03066218 0.15943363 -0.15108594 0.07471972
000060 2e cc 1e be 5e 0f 39 3e ba d0 0a 3e 10 23 11 3e
       -0.15507576 0.18072268 0.13556185 0.14173532
000070 cb 6d 34 be 5e a9 51 be d7 2a 1d 3e e5 1c 30 3e
       -0.17620008 -0.20474765 0.15348373 0.17198522
000080 e3 43 4e bd 7d 20 3b be 2c 0e 00 3e 1e f4 ef bd
       -0.05035771 -0.18274112 0.12505406 -0.117164835
000090 e4 ec d8 3d 15 81 c2 3b fe 3c 7b 3e 22 80 ab 3c
       0.10592058 0.005935798 0.24534985 0.020935122
0000a0 7d f7 55 be 3d 07 c4 bd 4c cf d5 bd a1 0b b2 3d
       -0.2089519 -0.09571693 -0.10439929 0.08693624
0000b0 ff 1b 33 3d 20 46 47 be 53 32 1b be 23 0e 14 3d
       0.04372787 -0.19460344 -0.15155916 0.036146294
0000c0 df fd 8f be a2 1e 06 be cd 2f 00 3e b7 68 da 3c
       -0.28123376 -0.13097623 0.12518235 0.02666126
0000d0 e8 82 5d be 41 97 34 bd be 0b 27 be e2 31 ea bd
       -0.21631968 -0.04408956 -0.16313073 -0.11435296
0000e0 5c 58 ac bd 1f a9 1b 3e a7 eb 9d 3e 6c 58 10 bb
       -0.08415291 0.15201233 0.3084385 -0.002202536
0000f0 84 f5 69 be 62 30 13 3e 0b df ae bd a5 75 2b 3d
       -0.22847563 0.14373925 -0.08538636 0.04186024
000100 ee fa 7e 3e 40 a3 22 bd 75 d5 31 3d 3a 93 09 be
       0.2490041 -0.03970647 0.04341646 -0.13435069
000110 8f 44 18 3e 31 cc 21 3e 13 3c 96 bd 32 b4 28 bb
       0.14869903 0.15800549 -0.07335677 -0.002574217
000120 fa 2c 74 3e f4 aa 08 be e6 01 40 be 9d 5c 36 bd
       0.23845282 -0.13346463 -0.18750724 -0.044521917
000130 7b 67 1d bd 9c 66 35 be 76 68 ff bd 3d 07 4d 3d
       -0.038428765 -0.17714924 -0.12471096 0.05005573
000140 c8 bd 2e 3e 6f a3 fb bc ff b0 db bd 7a 4a 6d be
       0.17064583 -0.03071758 -0.10727119 -0.23172942
000150 28 6d 23 be f9 75 c3 3d 41 46 24 3d fe 4d 0f be
       -0.15959609 0.09543986 0.04010606 -0.13994595
000160 9d d1 3c bd 27 ef 45 3e c8 b4 ff bd 9e 5e 87 be
       -0.04609834 0.1932951 -0.12485653 -0.26439375
000170 a1 d4 2e 3d 4a ac 36 bd e5 1f ce 3d 78 b2 3d be
       0.042683247 -0.0445979 0.10064677 -0.18525112
000180 7b 2b a8 3d 83 d9 3a be da 31 20 3e 5a d7 f8 bc
       0.08211418 -0.18247037 0.15644017 -0.030376125
000190 16 77 2a bc c8 60 03 3e e0 05 39 be 87 d7 8b 3e
       -0.010404369 0.12829888 -0.18068647 0.27312872
0001a0 33 04 43 be bb e0 60 bd 96 e4 58 3e 87 dd b4 3d
       -0.1904457 -0.05490182 0.21180949 0.088313155
0001b0 3a 21 ee 3c f7 39 92 bd 91 f3 15 bd 40 1e 9d 3d
       0.029068578 -0.07139962 -0.036609236 0.07671785
0001c0 6e 3d 04 3e 79 b5 3d be b4 67 19 3e d0 df 6d be
       0.12914059 -0.18526258 0.14980966 -0.23229909
0001d0 58 66 62 bd 31 d9 0e be a8 90 6e be 29 a9 15 be
       -0.055273384 -0.1395004 -0.2329737 -0.1461531
0001e0 9d 80 20 3e ad b7 ec 3d b2 7e ae 3d 43 69 79 be
       0.15674062 0.11558471 0.08520259 -0.2435656
0001f0 63 bd 70 3b 12 d3 2e 3e 3e 7f 48 bd 16 6b 05 bd
       0.0036733977 0.17072704 -0.048949473 -0.03257283
000200 7d 76 85 be 0a ae 80 3e f0 db 7a 3d b9 25 00 3e
       -0.26066962 0.2513278 0.061244905 0.1251439
000210 55 1e 89 3e f7 8e e7 bd 97 6a 79 bc 76 e1 5c 3e
       0.26780954 -0.11306565 -0.015223167 0.21570382
000220 a3 a8 17 3d bf 57 fc 3d 81 15 06 be 32 c4 7d bd
       0.03702606 0.12321424 -0.1309414 -0.061954685
000230 23 f9 22 3e 85 1a 85 be 4a e7 e4 bd b1 e8 0a 3e
       0.1591535 -0.25996795 -0.111769274 0.13565327
000240 e9 28 8d bd e8 b0 8f 3d 6d 77 57 bd e2 5c 0c be
       -0.068925686 0.07016164 -0.052604128 -0.13707307
000250 d2 fb 26 be 78 c0 8c be 7b 13 59 be 58 52 66 be
       -0.16307 -0.27490592 -0.21198837 -0.22492349
000260 a4 91 f3 bd 87 7d 95 3c 22 04 e3 3d 98 a0 4d 3e
       -0.11893013 0.018248333 0.11084773 0.20080793
000270 08 f4 54 bd 13 ae b4 bd 2d 18 4e be 2c 7a 8d bd
       -0.05199054 -0.088222645 -0.2012641 -0.06908068
000280 ea 4f f4 bc d5 fe 5c bd 8f 1b 52 3d 34 18 2e be
       -0.029823262 -0.053953964 0.051295813 -0.1700142
000290 8a 8d 55 be 35 a9 9a 3c a8 42 30 3e d1 88 52 be
       -0.20854774 0.018879512 0.17212927 -0.20560004
0002a0 75 47 a6 3d d4 2a f8 bd 35 a4 e5 3d 1d 48 51 3e
       0.08119098 -0.12117544 0.11212961 0.20437665
0002b0 17 a4 65 bd 56 ef d0 bd a2 33 1f be b2 0f 84 bd
       -0.05606469 -0.102019 -0.1554704 -0.06448306
0002c0 60 d4 50 be c7 88 c5 3d e3 69 0e be 23 a3 fd bd
       -0.20393515 0.09645229 -0.1390758 -0.123846315
0002d0 b4 b3 d5 3d 65 86 30 3d 26 2e 82 3e e1 6c 56 be
       0.10434666 0.04309692 0.25425833 -0.20939972
0002e0 24 e5 68 be 1b e7 6c bd 8a ba a0 3d 4a 03 93 3d
       -0.2274366 -0.057837587 0.078480795 0.07178362
0002f0 07 a9 9b bd bf 59 4c 3e 9d b2 e5 bd da 7e a9 3d
       -0.07600599 0.1995611 -0.112157084 0.08276148
000300 3b 3b 71 be c3 b0 97 3d 47 06 d5 bd e8 3e 8c bd
       -0.23557751 0.074067615 -0.10401588 -0.06847936
000310 1a 1e 53 3e 7e 69 61 3e 86 d1 02 bd e9 d2 72 be
       0.20616952 0.22012898 -0.0319381 -0.23713268
000320 57 51 33 bd 5b 45 16 3e 21 9a 59 3e 58 dc 8e 3c
       -0.043778744 0.14674895 0.21250202 0.017439052
000330 fe e6 d1 bc 6b 5b 59 3e a4 4c d1 3d bd 5d 0a 3e
       -0.025622841 0.2122628 0.10219696 0.13512321
000340 11 53 1b bd e9 b8 02 3d c9 73 f3 bc 3b 98 6c 3d
       -0.037921015 0.031914625 -0.029718297 0.057762366
000350 d5 db 2e be e5 76 d5 bd 25 b5 f4 bb b3 f4 60 3e
       -0.17076047 -0.10423068 -0.007467883 0.21968345
000360 22 01 65 3e c6 48 24 be 90 ff c0 3d 52 70 4e 3d
       0.22363713 -0.16043386 0.09423745 0.050400086
000370 9c 5c 53 bd 15 d9 14 bd 0e 5d 37 bd 71 63 05 be
       -0.05160199 -0.036339838 -0.04476648 -0.13026215
000380 12 0a 17 be 19 6c da 3d 50 97 38 bd 67 40 85 3b
       -0.14749935 0.10665149 -0.045066178 0.0040665152
000390 c4 49 29 3e 87 1e 14 be bb ab 1d 3e 45 18 5d 3e
       0.16532046 -0.1446477 0.15397541 0.2159129
0003a0 a3 39 36 3e d5 17 0f be 81 68 1d be e3 55 24 be
       0.17795424 -0.13973935 -0.15371896 -0.16048388
0003b0 d8 5e 45 be 1b f4 06 3e 27 83 e4 bd 35 f8 e6 bd
       -0.19274461 0.13179056 -0.11157828 -0.112778105
0003c0 1a c8 36 be 6c fd 84 3e 75 65 0d 3e 6a 35 f3 bd
       -0.1784977 0.25974596 0.13808234 -0.11875422
0003d0 ce f8 66 be de da 67 be 5f 3b 5a be 24 85 45 bd
       -0.22555849 -0.22642085 -0.21311711 -0.048222676
0003e0 8a a8 76 3e 3c 50 2f 3e 3a ad cd bc 1e 23 98 bc
       0.2408773 0.1712045 -0.025107015 -0.018571433
0003f0 1d db 02 be 9c 0f 68 3d ee 06 6e be 8c d2 bb bd
       -0.12778898 0.05665551 -0.23244831 -0.09171018
